yeaudio/utils/vad_models/model_quant.onnx (onnx, 512426 bytes, 36 tensors)

encoder.in_linear1.linear.bias f4 [140]
000000 f9 bf 0b be ed 89 ac 3e f4 71 18 3e 44 b9 33 3f
       -0.1364745 0.3369898 0.1488722 0.7020457
000010 39 b4 1d 3e ea fd 53 3e 1c 37 56 be bb 87 a2 3e
       0.1540078 0.2070233 -0.2091946 0.3174418
000020 2c d2 09 be 7e 66 b7 bd 19 3f 48 3e 69 d5 ac 3e
       -0.1345908 -0.08955096 0.1955532 0.3375657
000030 71 ea 56 be a3 ab 49 3e 60 56 70 be 0d 5e da 3d
       -0.2098787 0.1969438 -0.2347045 0.1066247
000040 86 79 86 be 54 4c ab 3e 87 2b 11 3d 09 92 02 3e
       -0.2626459 0.3345667 0.0354419 0.1275102
000050 40 63 2b be 54 d2 f5 be 3c ab 13 3e 2e 51 aa bd
       -0.1673708 -0.4801203 0.1442079 -0.08316265
000060 db f6 a5 bb 4a 9f 7e 3d a9 5b 6a bd 5a 71 00 3e
       -0.005064828 0.06216363 -0.05721632 0.1254324
000070 f8 40 94 3d 88 63 55 be 40 8f 01 bf ad 65 e3 3e
       0.07238954 -0.2083875 -0.5060921 0.4441351
000080 3c d8 d2 bd 14 2b 16 3e c4 c1 2f be 1f d6 68 be
       -0.1029515 0.1466487 -0.1716376 -0.2273793
000090 ff cc 38 be ff bb c8 be 95 21 90 3d 3c a7 a0 be
       -0.1804695 -0.3920593 0.07037655 -0.3137759
0000a0 bb e0 c6 be 68 4c 97 3d 62 d9 28 3f a6 7c f8 3d
       -0.3884333 0.0738762 0.659567 0.1213315
0000b0 90 54 81 be a3 2b 59 bd b4 fd 48 be 74 5c 22 bd
       -0.2525983 -0.05302013 -0.1962803 -0.03963895
0000c0 7e e3 2b 3e 14 e5 35 3c 46 09 ce be 4e 23 e2 3d
       0.16786 0.01110198 -0.4024145 0.1104189
0000d0 13 3b e6 3c 5c bb 43 be ba 21 e7 bd d1 57 50 3e
       0.02810434 -0.1911444 -0.1128573 0.20346
0000e0 3f 14 72 bd 07 9f 19 be c6 0d f9 3d 25 45 50 3d
       -0.05910134 -0.1500207 0.1216083 0.05084719
0000f0 19 41 3e 3e c9 89 fb bd 7a e5 07 bf 9b 21 a8 3e
       0.1857952 -0.1228214 -0.5308453 0.3283814
000100 cf 29 0d be 04 44 b1 bd 40 a8 3e be 07 9d 3b 3e
       -0.1378548 -0.08655551 -0.1861887 0.1832162
000110 4d 07 de bc 65 89 d3 bd 6f 05 3d bd 9f 15 32 be
       -0.02710309 -0.1032894 -0.04614776 -0.1739106
000120 9b fb e0 bd 32 64 4a 3d ac 85 6b 3b 86 d5 06 3f
       -0.1098549 0.04941196 0.003593783 0.5266956
000130 be 1d b8 3d 6d eb 82 3d 3c 7e 7c 3e 11 1a d5 3e
       0.08990048 0.0639256 0.2465753 0.4162145
000140 07 53 9e bd 53 cd 24 be e8 21 a5 bc 5d bd 01 3f
       -0.0773068 -0.1609395 -0.02015777 0.5067957
000150 9b b0 f4 be 63 5d 7e bd f1 8d b6 3c a7 f6 b0 be
       -0.4779099 -0.06210078 0.02228448 -0.3456318
000160 15 97 4c 3d 1e b6 82 bd 87 2b 31 be d5 ef b6 3d
       0.04994877 -0.06382392 -0.1730176 0.08932463
000170 52 39 db bc b1 42 63 be 92 2a b5 3d 77 ee 36 3d
       -0.02676073 -0.2219341 0.0884601 0.04466101
000180 e9 03 11 3d 84 df 14 3e d0 e1 1c bc a4 b0 41 3e
       0.03540412 0.1453839 -0.009575322 0.1891504
000190 dc fb 93 be f2 c6 a3 3e 25 f7 c2 3e b5 be 5f 3d
       -0.2890309 0.3198772 0.3807918 0.05462523
0001a0 2d 2b d8 bd ef 3e c3 bd 08 1f 4c bd 4f fe 5b 3e
       -0.1055511 -0.09533488 -0.04983428 0.2148373
0001b0 1e 38 b2 3e 6e 97 f7 3d 51 c8 3c be 70 35 24 be
       0.3480844 0.1208943 -0.1843579 -0.1603601
0001c0 fd 84 f3 bd 75 67 a4 3e 7d 4f 34 3d a6 6a 4e be
       -0.118906 0.3211018 0.04402112 -0.2015787
0001d0 ba 32 d3 be a3 54 e7 bd b0 48 7d be 4e bd 5a 3d
       -0.4124964 -0.1129544 -0.2473476 0.05340319
0001e0 73 f8 a8 bd 41 38 4d 3e ae 7d 4e be 30 38 d9 3d
       -0.08250513 0.2004099 -0.2016513 0.1060642
0001f0 70 1f df 3c ad 35 5f 3e 6b 72 5f 3e 79 34 6f 3d
       0.02723667 0.2179782 0.2182099 0.05839965
000200 06 86 8b bd 63 39 c4 3d d3 b2 0f 3e 35 50 f3 be
       -0.06812672 0.09581258 0.1403306 -0.4752213
000210 08 49 05 3e f6 01 1a be 2e be ca 3e 27 8f bc 3c
       0.1301614 -0.1503981 0.3959822 0.02301748
000220 f2 44 10 3e ee 4d 13 bd 53 c6 34 be a0 80 07 3e
       0.140888 -0.03596299 -0.1765378 0.1323266

encoder.in_linear2.linear.bias f4 [250]
000000 7c 26 8b be f3 2f 13 be 52 35 d0 bd f9 b9 06 be
       -0.271778 -0.1437376 -0.1016642 -0.1315688
000010 95 c1 54 be 21 8e 22 be 79 fb 79 bc 8e 85 36 bf
       -0.2077697 -0.1587453 -0.01525771 -0.7129754
000020 ad e0 b2 be d3 b8 c8 be 0c f2 95 be dd 42 87 be
       -0.3493704 -0.3920351 -0.2928623 -0.264182
000030 6c b1 ab be 91 44 6f be 0b 23 9a be 2a ab 85 be
       -0.335338 -0.23366 -0.3010486 -0.2610715
000040 7f bc dc bd b9 12 82 be 10 20 46 bd c8 9e 84 be
       -0.1077814 -0.2540491 -0.04837042 -0.2590239
000050 02 3b a0 3e 62 2d 5e 3e d3 e7 81 be fd 93 9e be
       0.3129502 0.21697 -0.2537218 -0.3097228
000060 96 ae a3 bd c1 a2 4c bd 8f 8d 38 3e ab ba e2 bd
       -0.07992284 -0.0499599 0.1802275 -0.1107076
000070 50 b7 09 bf 49 27 0f be 44 c4 1a bf 7d ea 38 be
       -0.5379534 -0.1397983 -0.6045573 -0.180582
000080 8d e0 2b bf 78 28 d6 3e ca d7 37 3e 7d 18 13 3e
       -0.6713951 0.4182775 0.1795341 0.1436481
000090 47 d5 c1 be 01 e0 83 be 36 2b 49 be dc 12 9d 3e
       -0.3785803 -0.2575684 -0.1964539 0.3067845
0000a0 63 e6 64 be e5 7f 96 be 06 1d 95 bb e1 0c 00 bf
       -0.2235351 -0.2939445 -0.004550579 -0.5001965
0000b0 24 64 cf be 1f f2 e2 be 86 e6 fa bd 45 03 26 bd
       -0.4050609 -0.4432535 -0.12251 -0.04053046
0000c0 bb 0f b4 be fd 93 86 be 4f e7 32 3e 66 55 0a be
       -0.3516825 -0.2628478 0.1747105 -0.1350914
0000d0 33 a6 c8 be 5b 42 a6 be 63 6d 1a 3e cf 66 d5 bd
       -0.391893 -0.324725 0.1508079 -0.1042
0000e0 99 3e a1 be a7 0e 1a bf 5f 91 3e 3f 40 87 71 be
       -0.3149307 -0.6017861 0.7444057 -0.2358675
0000f0 71 a2 87 bc 3e 00 61 bd 46 50 d6 bd 97 b3 de be
       -0.01655695 -0.05493187 -0.1046453 -0.4349639
000100 f1 1c f8 be 1d 53 a8 be 07 c3 ee be ac 3e c2 be
       -0.4845958 -0.3287591 -0.4663317 -0.3793844
000110 6f 3c 07 bf 7c 16 a1 3d 99 31 80 be 76 86 84 3d
       -0.5282659 0.07865617 -0.2503784 0.06470959
000120 2a e8 29 be e5 ba 8c 3e 7a 2d 8e 3e f3 47 4f be
       -0.1659247 0.2748634 0.2776907 -0.2024229
000130 8e 2d 9a bc d5 8c 91 be 0a d9 ed be d9 58 56 be
       -0.01882055 -0.2842776 -0.4645465 -0.2093233
000140 66 1a 08 be 8c 31 0b be a3 a4 13 bf 65 87 15 3e
       -0.1329132 -0.1359312 -0.5767309 0.1460243
000150 a4 fb 99 3f 4f 0d 6a bd 89 cc 21 bd 23 66 8e be
       1.202992 -0.0571416 -0.0395017 -0.278123
000160 47 b8 b3 be 67 59 e0 3e a5 2a 98 bd 5d 8f fd 3d
       -0.3510153 0.4381821 -0.07430009 0.1238086
000170 3d d2 83 3d 3d f9 67 be 0c 6a 09 be 73 a5 59 be
       0.06436584 -0.2265367 -0.1341936 -0.2125452
000180 d7 ac 17 bf 32 0c 82 bd 5e 44 c0 be 5e 3a 4c be
       -0.5924811 -0.06349982 -0.3755216 -0.1994414
000190 c6 20 86 be 83 f3 de 3d f7 be 72 be db 9a 14 bc
       -0.2619688 0.1088629 -0.2370566 -0.009070124
0001a0 6a 56 f7 3b 7f 9e 3b be cb b9 cd be b6 97 ee bd
       0.007548143 -0.1832218 -0.4018081 -0.1165003
0001b0 fb 6f d6 be 4a 77 54 be b1 0e ec be d6 d2 a8 bd
       -0.4188231 -0.2074863 -0.4610496 -0.08243339
0001c0 6e f5 07 bf 00 8d 0c 3f b4 96 cd 3d 6d d1 20 bb
       -0.5310887 0.5490265 0.1003851 -0.002453889
0001d0 83 cb 49 be ae 89 80 be 29 97 a5 be c8 a0 e9 be
       -0.1970654 -0.2510504 -0.3234189 -0.4563048
0001e0 71 db 29 3c 27 9c 22 be a0 5e 2f be 5b 16 22 3f
       0.01036726 -0.1587988 -0.1712594 0.6331536
0001f0 54 e4 9e 3f d2 25 14 3d 59 35 ac 3e 10 4c 6f bf
       1.241343 0.03616888 0.3363445 -0.9347544
000200 05 0d 1f be cb 10 d7 3d 76 cc 8c bd d4 6b aa be
       -0.1553231 0.1050125 -0.06874935 -0.3328539
000210 0b 0b 80 bf 08 28 dc be 84 88 df bd 6b 8b df 3b
       -1.000337 -0.4299929 -0.1091471 0.00682204
000220 3d 7e bd 3d f6 43 9c be 38 20 98 be 8e e3 6e bc
       0.09252594 -0.305206 -0.2971208 -0.01458062
000230 c1 91 88 be 44 5f 7b be 8f 7e 89 3e 39 91 a6 be
       -0.266737 -0.2454806 0.2685437 -0.3253267
000240 3b e5 98 be ac 95 85 bc c7 85 bd bd 83 f7 5a be
       -0.2986239 -0.01630672 -0.09254032 -0.2138348
000250 5d e4 d8 bc ee 70 e5 bc 42 e2 cc be a4 9c e1 be
       -0.02647608 -0.02800795 -0.4001637 -0.4406482
000260 14 59 98 be ce c8 43 be 88 27 78 be 88 dc 1f bf
       -0.2975546 -0.1911957 -0.2423383 -0.6244588
000270 a6 af 6e 3f 70 e6 bc be 95 a7 14 bf e8 13 c1 be
       0.9323677 -0.3689456 -0.5806821 -0.377105
000280 09 66 c5 bd f4 6e a0 3e 55 25 75 bf 04 b3 9b bc
       -0.09638602 0.3133465 -0.9576009 -0.01900626
000290 b7 d3 02 bd 00 eb 54 be 16 ba e3 be a2 4b af be
       -0.03194019 -0.2079277 -0.4447791 -0.3423739
0002a0 91 e6 95 be c7 69 2b be 93 7a 85 bc 34 f7 c3 be
       -0.2927747 -0.1673957 -0.0162938 -0.3827454
0002b0 7d ae 49 3d 0b b6 a4 ba 26 7f 95 be 6b 70 03 3f
       0.04923867 -0.001256646 -0.2919857 0.5134341
0002c0 11 ce ed be 41 be 5f bf 68 ca 23 bf 44 f4 a6 3d
       -0.4644628 -0.8739968 -0.6398072 0.08152059
0002d0 ec 68 d0 be 42 40 fe be c1 75 c7 bd c2 01 0a bf
       -0.4070505 -0.496584 -0.09739257 -0.5390893
0002e0 7d 34 a4 ba 54 a7 cb 3f d4 a6 20 be 96 a3 d6 be
       -0.001252785 1.591044 -0.1568864 -0.4192168
0002f0 1d 5c 45 bf 39 36 61 be 90 ff 38 be 38 89 6c bd
       -0.7709368 -0.2199334 -0.1806624 -0.05774805
000300 39 2a 07 be a6 13 84 be 7c 33 80 3e 20 c8 15 bf
       -0.131997 -0.2579624 0.2503928 -0.5850849
000310 72 80 07 bd c2 d6 d1 be 69 af b8 3c b4 7f ab 3d
       -0.03308148 -0.4098416 0.02254458 0.08373967
000320 5a b9 d3 be 21 6c ca be fc d4 e2 bd 42 51 ea be
       -0.4135235 -0.3953562 -0.1107578 -0.4576512
000330 f7 39 81 3c c2 b2 3b be f0 19 5c be ab c5 5c 3f
       0.01577471 -0.1832991 -0.2149427 0.8623912
000340 ab a0 80 be 2a 95 fb 3d 82 79 90 3d 27 d9 32 be
       -0.2512258 0.1228431 0.07054426 -0.1746565
000350 ed 75 54 be f5 80 1e 3e 87 01 76 be 10 4b 99 be
       -0.2074811 0.1547888 -0.2402402 -0.2994008
000360 f2 03 ec bd 0d fa 86 be 2e ac 0b bd d2 25 31 bd
       -0.1152419 -0.2636265 -0.03409975 -0.04324896
000370 fe 54 63 be a1 92 68 3f 6d d2 19 bf e3 ff 4f bf
       -0.2220039 0.9084874 -0.6008671 -0.8124983
000380 c1 eb 5e be c4 5e 00 bf 6e 26 28 be 0f e6 04 bf
       -0.2176962 -0.501446 -0.1642091 -0.5191354
000390 f5 5d 0b be 4b 9a c6 be b7 68 fc 3e 21 bf 00 be
       -0.1361006 -0.3878959 0.4929864 -0.1257291
0003a0 79 51 a8 be 8e 45 b1 be c3 6a c4 3d e1 48 63 be
       -0.3287466 -0.3462338 0.09590676 -0.2219577
0003b0 50 21 52 be 18 4e cc bd 00 81 1a bc f2 32 29 be
       -0.2052052 -0.09975833 -0.00943017 -0.1652334
0003c0 f0 ae 41 be 36 71 a3 be db c4 56 bd 4f 1e d3 be
       -0.1891439 -0.3192231 -0.05243383 -0.4123406
0003d0 d1 a0 35 3d 9d 8b 42 be 43 30 28 be 38 67 0c be
       0.04434282 -0.1899857 -0.1642466 -0.1371125
0003e0 1e e3 81 3e 99 73 9c bc
       0.2536859 -0.01909809

encoder.out_linear1.linear.bias f4 [140]
000000 fb a1 6b be 8c 86 4c 3e 9e ae 87 3e ea 65 12 3e
       -0.2301101 0.199732 0.2650041 0.1429669
000010 4e 51 ac be cd 7d 05 be d8 ac 2c bf e9 a4 de be
       -0.3365578 -0.1303627 -0.6745124 -0.4348519
000020 7d a3 9b be de 1f c3 be 0f 20 03 3f 3a c0 0d 3e
       -0.3039817 -0.3811025 0.5122079 0.1384286
000030 15 ad 0d bf b7 bc 1d be 05 9b ec be 7d 7e 53 be
       -0.5534223 -0.1540402 -0.4621202 -0.2065372
000040 73 57 f5 3e 30 93 62 3e 6e 51 1a bf c3 8f 13 bf
       0.4791828 0.2212646 -0.602805 -0.5764124
000050 7e 2d 58 bd 40 fa a6 3e 67 05 33 3f 9f 22 f7 3e
       -0.05277776 0.326128 0.6993012 0.482686
000060 6c a2 e1 be 35 96 cb 3d ad ec 4c 3e 9e 84 f5 be
       -0.4406923 0.09940759 0.2001216 -0.4795274
000070 5d 3b 88 3e a7 18 82 bd 87 a5 4d bf 7c 9a 11 bf
       0.2660779 -0.06352358 -0.803307 -0.5687635
000080 6f 64 9e be 91 d5 99 3e 20 ec dc 3e a9 fe cc be
       -0.30936 0.3004575 0.431489 -0.4003804
000090 1c 4c 59 3f 61 25 0d 3e 9b 37 ee bd 50 d7 34 bd
       0.8488176 0.1378379 -0.116317 -0.04415065
0000a0 1d d4 ac be b1 2f 8a be 97 e0 27 bf 55 ff 00 3b
       -0.3375558 -0.2698951 -0.6557707 0.001968344
0000b0 1c 35 00 3e b8 9a 1e bf a2 89 82 be 6e 93 0e 3d
       0.1252026 -0.6195483 -0.2549563 0.03480857
0000c0 0a 09 b9 3e 15 c0 9d be 93 1b 3d be c7 6e 9d be
       0.3613971 -0.3081061 -0.1846755 -0.3074858
0000d0 13 3d 06 bf 01 bc 22 be 56 d7 61 be 8b fd a1 be
       -0.5243694 -0.1589203 -0.220548 -0.3163875
0000e0 e1 a1 3d bf 19 48 0a bf db e3 8c be 22 90 16 3e
       -0.7407513 -0.5401626 -0.2751759 0.1470342
0000f0 20 b8 a6 3e 76 b0 98 3c 11 56 ab 3e 91 a2 b9 3e
       0.3256235 0.01863883 0.334641 0.3625684
000100 78 04 46 bf bf a5 e2 bd f0 77 da be aa e3 0f bf
       -0.7735057 -0.1106677 -0.4266963 -0.5620676
000110 40 ef 1f 3e e6 37 bf bd 1e 26 88 be 18 a5 89 3e
       0.1561861 -0.09336834 -0.2659158 0.2688377
000120 7f 2c 61 3e 30 ed 6e bd 4c d6 12 3e ac 01 f6 be
       0.2198963 -0.05833167 0.1433956 -0.4804815
000130 c3 2e 9e bd c3 44 78 3e 4f cf b2 3d d5 ca 85 be
       -0.07723763 0.2424498 0.08730947 -0.2613131
000140 2b 2c 7c 3c 8f 22 06 3f 66 c3 1f 3f 9a ec 88 bd
       0.01539139 0.5239648 0.6240753 -0.06685753
000150 5b 8b ec be 38 43 0e bf f5 4f 2c bc f6 bd 06 bf
       -0.4620007 -0.5557132 -0.01051711 -0.5263361
000160 d6 59 50 be 4b 50 04 3f a4 4a 71 3e a5 c7 f5 3d
       -0.2034677 0.5168502 0.2356363 0.1200097
000170 27 6b 64 3e 7b c8 8e 3e 38 ed 08 3f 08 56 6d bf
       0.223065 0.2788733 0.5348697 -0.927094
000180 92 64 a8 be c7 08 19 3f 04 81 fb be 04 7e b5 3b
       -0.3288923 0.5977902 -0.4912187 0.005538704
000190 dd 51 01 3c 2a 4d af 3c dd 5f 03 3f eb 03 a4 be
       0.007893053 0.0213991 0.5131815 -0.3203424
0001a0 0b 89 c2 3e 74 d1 70 3e b9 6a 2b be b4 09 5d bd
       0.3799518 0.235174 -0.1673993 -0.05396433
0001b0 e7 6d 4e 3d 0b 8b c3 3e 19 b3 d8 3e f6 12 7e 3e
       0.05039778 0.3819202 0.4232414 0.2481192
0001c0 93 4e b5 3e 43 2e 25 bd cc 6e 93 3e 25 4d cd bb
       0.3541151 -0.04032732 0.2879547 -0.0062653
0001d0 03 3a ac 3d d2 1c 15 bf b1 3c 3f 3d 15 6c 98 be
       0.08409502 -0.582471 0.04668874 -0.2976996
0001e0 0f ba ef 3d 16 79 00 3e 94 9c fc 3e 56 d9 aa 3e
       0.1170541 0.1254619 0.4933821 0.3336894
0001f0 90 69 6d be b9 23 42 3e 8e c7 9d 3d a1 ba 80 3d
       -0.231848 0.1895894 0.07704078 0.06285597
000200 c6 b1 a2 3c af 18 93 3e 7c 37 c8 be 02 63 0f 3f
       0.01986016 0.2872977 -0.3910483 0.5601045
000210 14 e8 7b 3e 0a e1 a0 be 5b c2 2f 3f d2 95 53 be
       0.2460025 -0.3142169 0.6865594 -0.2066262
000220 37 e1 ce bd d0 58 b9 be 40 c3 92 3e 9f 48 2e 3e
       -0.1010155 -0.3620057 0.2866459 0.1701989

encoder.out_linear2.linear.bias f4 [248]
000000 af cf 8e 40 80 17 93 bd 60 14 a7 bd 30 93 82 be
       4.462852 -0.07182217 -0.08158183 -0.2550292
000010 0b 9e 05 3e e9 fb de 3c c4 4e a0 3d 14 d2 37 bc
       0.1304857 0.02721973 0.07827523 -0.01121952
000020 86 01 5d bd b4 d8 83 3e c8 6c 5f 3e 55 3c 4c be
       -0.05395653 0.2575127 0.2181884 -0.1994489
000030 8c a9 85 bd e2 5b 88 bd f4 f0 88 bd 47 e1 27 be
       -0.06526479 -0.0665815 -0.06686583 -0.1639453
000040 52 ba 3c be 38 8d 90 be ae 62 f1 bd a8 45 5b be
       -0.1843045 -0.2823274 -0.117864 -0.2141329
000050 e8 0b 16 be f2 52 83 be a1 6b 39 3d 81 4f cc bd
       -0.1465298 -0.2564922 0.04526866 -0.09976102
000060 c1 e2 10 bd f0 77 fe 3d 79 12 9b 3d 0d 6b 87 be
       -0.0353725 0.1242522 0.07571883 -0.2644886
000070 c3 3e 13 be 8a e1 b4 3d 75 94 e3 bc 5a 0c e3 3e
       -0.1437941 0.08832081 -0.02778075 0.4434536
000080 d6 99 59 be 08 64 b6 bd 04 09 f5 bd fe 5d c3 3d
       -0.2125009 -0.08905798 -0.1196461 0.09539412
000090 a8 d7 16 bd 71 75 60 3e 4c 53 42 bc 76 aa 58 bd
       -0.03682676 0.219198 -0.01186068 -0.05289694
0000a0 96 aa e9 bd d7 29 9b 3c 6c 30 ef 3e cb c9 0a be
       -0.1140949 0.01894085 0.4671663 -0.1355354
0000b0 48 50 2c be a2 c2 27 be 5a fd e7 bd 00 09 79 be
       -0.168275 -0.1638284 -0.1132762 -0.2431984
0000c0 f8 21 7a be b9 b6 49 be 36 b7 88 be 99 5f 02 be
       -0.2442702 -0.1969861 -0.2670228 -0.1273178
0000d0 0e ce 71 be 59 dd 69 bd bd 9a 82 be 00 0d 4d be
       -0.2361376 -0.05709586 -0.2550868 -0.2002449
0000e0 e6 73 c7 bd 22 74 a9 bd 49 33 9f 3d bc cd 83 be
       -0.09738903 -0.08274104 0.07773454 -0.257429
0000f0 29 b4 34 be 0f dc 4c 3e 03 3f fa bd df 1d 04 be
       -0.1764685 0.2000582 -0.1221905 -0.1290202
000100 5f b3 3c bd da 25 75 be 75 c8 b7 bd bb 27 ef bd
       -0.0460695 -0.2394022 -0.08973781 -0.116775
000110 47 df 01 be fc 56 2b be 34 e6 04 3e b7 9f 27 be
       -0.1268283 -0.167324 0.1297844 -0.1636952
000120 c4 4b 36 3e d0 ec 2f be 34 5c 56 be ce fd 75 3d
       0.1780234 -0.1718018 -0.2093361 0.0600565
000130 3c 26 98 bc d0 68 7e 3e 3c 31 c9 bd 27 32 d3 3d
       -0.01857292 0.2484467 -0.09823844 0.103123
000140 c4 9c eb bd 8c 70 8d be f5 26 8f be 08 97 11 3e
       -0.1150451 -0.2762493 -0.2795941 0.1421777
000150 b5 97 c7 3b bb 63 79 be 59 6c 63 3e 16 bf 59 be
       0.006091083 -0.2435445 0.222093 -0.212643
000160 be ed 40 bb b0 b1 e6 bd bb 5a 03 be 5b 5d 56 3e
       -0.002943858 -0.1126436 -0.1282758 0.2093405
000170 b6 38 81 be a4 0a 04 bd 06 d4 58 be fa 1b 8e be
       -0.2523858 -0.03223671 -0.2117463 -0.2775572
000180 2d bb 58 bd 35 c3 97 3d 5b 2b 91 3e f3 55 86 be
       -0.05291288 0.0741028 0.2835339 -0.2623745
000190 89 ed ce bd e3 20 0b bd 3e 16 9c 3d af b2 16 bd
       -0.101039 -0.03396691 0.0762143 -0.0367915
0001a0 1f c8 ce 3c 14 e6 21 3d 79 1f c9 3c 76 0b 36 be
       0.02524191 0.03952606 0.02455114 -0.1777781
0001b0 fe ea 18 3d 08 79 70 be 2f 2a 73 be 5b c3 e6 3d
       0.03733348 -0.2348367 -0.2374656 0.1126773
0001c0 e0 95 8e be 56 60 b2 bd 5f eb aa 3d fc f1 10 3e
       -0.2784872 -0.08709781 0.08345675 0.1415481
0001d0 3f b8 34 3e 91 e1 b7 bd 5c 7c 0d be ed cb cb bd
       0.1764841 -0.0897857 -0.1381697 -0.09951005
0001e0 2f bc 27 3f ca b6 5c bd 5d f9 3d bd 9e 8b e0 3d
       0.6552152 -0.05388526 -0.04638039 0.1096413
0001f0 03 4d bb bd 5f 52 36 be 74 a6 2b 3d 24 94 ae bd
       -0.09145548 -0.1780486 0.04190679 -0.08524349
000200 e3 a4 20 bd 55 a4 2a be 3b 25 45 3d 18 19 ce bd
       -0.03921975 -0.1666425 0.04813121 -0.1006338
000210 6d 83 5c be b6 4a cf 3c c0 bc d4 3c 72 ca 12 be
       -0.2153451 0.02530418 0.02596891 -0.1433504
000220 76 4d 8d 3e a9 41 c4 3c df 61 64 be f5 1d 92 3d
       0.2759816 0.02395709 -0.2230296 0.0713462
000230 38 9d 61 3e f9 05 35 be 07 05 91 3b ef 6b 29 3d
       0.2203263 -0.1767806 0.004425648 0.0413627
000240 9d cf 1a bc 11 46 ed bd c8 e1 65 3e bd ed 88 be
       -0.009448913 -0.1158563 0.2244941 -0.2674388
000250 20 10 4b be 97 ad 48 be 74 d5 07 be 85 1c 4d 3e
       -0.1983037 -0.1959747 -0.1326502 0.2003041
000260 08 9f 17 3e 53 ad 92 3e 74 1a c3 3d 52 e4 ea bd
       0.1480676 0.2864786 0.0952653 -0.1146933
000270 51 c2 17 be 9b ca c3 bd 5f 02 60 bc d3 d9 a8 bd
       -0.1482022 -0.09560128 -0.01367244 -0.08244672
000280 38 48 05 be 55 50 b2 bc f6 a2 14 3e 05 32 5b bd
       -0.1301583 -0.02176682 0.1451529 -0.0535145
000290 e6 8a e7 3d 4f 02 5d 3d c6 9f 6e 3d 28 f9 d3 3e
       0.1130579 0.05395728 0.05825784 0.4140103
0002a0 af 83 11 be dd 56 28 3f ff 44 18 be a4 96 04 be
       -0.1421039 0.6575754 -0.1487007 -0.1294809
0002b0 a2 19 0a be 91 ee 2f be 88 79 8f bd dc ba eb bd
       -0.1348634 -0.1718085 -0.07005602 -0.1151025
0002c0 b8 70 9d 3e 7a aa bf bc f8 16 ab 3e f3 36 da bc
       0.3075006 -0.02339672 0.3341596 -0.02663753
0002d0 9f 77 0e bd 15 99 57 3e 30 08 31 3f 5a fd 77 be
       -0.03478205 0.2105449 0.6915312 -0.2421774
0002e0 32 77 0d be d9 2d a4 3d 73 af fd 3d 37 71 a5 3e
       -0.13815 0.08016557 0.1238698 0.3231294
0002f0 02 ce 04 be e9 25 78 3d a8 46 fe bd e9 dc 30 3f
       -0.1296921 0.06058303 -0.1241582 0.6908708
000300 65 43 cd bd cf c5 62 3e 94 c5 c4 3e c9 a3 8e bd
       -0.1002262 0.2214577 0.3843199 -0.06964833
000310 30 84 bf 3e 8d 1f 6f be a6 97 68 be fd 99 92 be
       0.3740554 -0.2335188 -0.227141 -0.2863311
000320 93 f6 f0 3e 6d 44 36 be 3d 4e b7 bd f5 42 26 3e
       0.4706312 -0.1779954 -0.0895047 0.1623648
000330 4a 39 a5 bd d7 82 bb 3e f4 0f b7 bd 1d ca 40 3e
       -0.08067568 0.3662326 -0.0893859 0.188271
000340 59 99 12 be fc ed 51 be 60 17 c7 3e e9 09 0c bd
       -0.1431631 -0.2050094 0.3888502 -0.03418914
000350 b1 c3 87 bd 93 1e 61 bc 90 90 b5 3d bd 51 8f 3e
       -0.06629122 -0.0137402 0.08865464 0.2799205
000360 93 f1 9a 3c 8b e6 9c 3c 23 6e 08 3d 19 41 06 be
       0.01891402 0.0191529 0.03330816 -0.1311077
000370 3d 2a 82 be 7e c6 ab bd 9c 5e d3 3d c8 12 ef bc
       -0.2542285 -0.08387469 0.1032078 -0.02918376
000380 d1 76 a0 3e a4 fb 98 bd 47 56 95 bd 8c 49 4f be
       0.3134065 -0.07469872 -0.07291847 -0.202429
000390 b3 88 37 3d 49 e7 ed 3e 04 a9 ac bd a6 39 53 be
       0.0448081 0.4646552 -0.08430675 -0.2062746
0003a0 95 3e da 3e 99 33 56 be ce d8 85 bd 75 ca 61 bd
       0.4262587 -0.2091812 -0.06535493 -0.05512472
0003b0 c1 bb 20 3f 9b 34 d2 3d e2 e3 18 be 4b ba 4c 3e
       0.6278649 0.1026394 -0.1493068 0.1999294
0003c0 a6 41 f6 3d 41 fc 42 be 8c 69 9f bd a7 5d 34 be
       0.1202424 -0.1904154 -0.07783803 -0.1761385
0003d0 9f 41 46 be 60 99 4a be 13 7c 78 be 19 c1 3b be
       -0.1936097 -0.1978507 -0.2426608 -0.1833538

encoder.fsmn.0.fsmn_block.conv_left.weight f4 [128, 1, 20, 1]
000000 af f3 77 3d b3 55 30 3c a9 82 b3 3c a3 3d 7b 3c
       0.06053513 0.01076262 0.02191289 0.01533452
000010 99 aa 08 3d 4b e8 ec 3b 12 cd 52 3d 9c c9 13 3d
       0.03336582 0.00722984 0.0514651 0.03608094
000020 cc 5a 71 3b 49 fc 86 bc d3 19 d1 3c 7c 60 82 bd
       0.00368278 -0.01647772 0.02552501 -0.06366059
000030 83 a1 4e bd bc 56 0f be d4 a9 79 be b7 c1 1f be
       -0.050447 -0.1399793 -0.2438119 -0.1560124
000040 00 35 62 be b4 ee c5 bd d2 97 35 bd ea b2 d6 3b
       -0.2209053 -0.0966467 -0.04433424 0.00655209
000050 8d c6 6b bb b6 a4 42 3c 80 a0 98 bb 4a de 4e 3c
       -0.00359765 0.01188009 -0.004657805 0.01262624
000060 04 58 60 bc 14 a8 0b 3b 08 b0 02 3c 9b 71 21 bc
       -0.01369286 0.00213099 0.007976539 -0.009853746
000070 19 b5 f4 3c 18 db 0c bd c8 58 24 3d cf 68 89 3c
       0.02987151 -0.03438863 0.04012373 0.01677361
000080 b1 b9 f3 3c 73 3d 3b 3d d2 40 d2 3d ac 3a 4b 3d
       0.02975163 0.0457129 0.1026627 0.0496165
000090 2a e2 3c be 08 c4 e4 be 7c ce 96 be d1 0e 8e 3c
       -0.1844565 -0.4468081 -0.2945441 0.01734105
0000a0 a9 06 ed bc 82 ac 48 bc cf 2a 91 ba 0d e0 b0 bc
       -0.02893384 -0.01224816 -0.001107538 -0.02159121
0000b0 85 57 11 3b 83 96 c0 bc b3 f4 94 3a 73 e7 55 bc
       0.002217741 -0.02350927 0.001136443 -0.01305567
0000c0 74 cd 8a bc c4 40 44 3b f0 93 2b ba 5b 95 25 bc
       -0.01694367 0.002994583 -0.0006545177 -0.01010641
0000d0 3b ec d4 3c 47 24 48 bc b1 c9 8d 3b c3 85 a9 3d
       0.02599155 -0.01221568 0.004327022 0.08277466
0000e0 75 35 16 3e 20 55 76 3e 1c f3 be 3d fa 86 a9 be
       0.1466883 0.2405591 0.09323713 -0.3311079
0000f0 e9 a4 72 be 3f 48 c1 bd f1 96 a4 bd 49 f6 d8 bd
       -0.2369572 -0.09437608 -0.08036602 -0.1059385
000100 5a ee 50 bd e1 e9 0a be 9c 1d 99 bd fe 3a ac bd
       -0.05100856 -0.1356578 -0.07476351 -0.08409689
000110 63 8c 98 bd c8 30 98 bb 70 bd 60 bd 16 86 eb 3c
       -0.07448652 -0.004644487 -0.05486816 0.02875046
000120 18 89 fa 3d 01 54 dc 3d dc 7f e4 3d 35 64 e7 3d
       0.1223318 0.1075821 0.111572 0.1129841
000130 6e 85 34 bc fd 34 29 be b2 35 29 be 12 61 4b bd
       -0.01101814 -0.1652412 -0.1652439 -0.04965312
000140 a5 af 76 3e 16 94 96 bc 1a 47 64 3d 33 83 5f 3c
       0.2409044 -0.01838116 0.05573187 0.01364212
000150 78 ec 7a 3d 14 a5 b0 3c 94 a7 5b 3d f5 39 ae 3c
       0.06126067 0.02156309 0.05362661 0.02126787
000160 40 76 8e 3c 59 4c 3d 3d ed e5 c8 3c f0 b5 14 3d
       0.01739037 0.04621539 0.0245237 0.03630632
000170 94 5c 32 3d 71 82 61 3c 34 8a 3e 3d 06 c3 9c 3d
       0.04354532 0.01376401 0.04651852 0.07654385
000180 9f 87 22 3d e0 b7 77 3d ae a9 b3 bd a4 48 00 bf
       0.03968012 0.06047809 -0.08772598 -0.5011084
000190 d2 fd 87 bd f8 fb a8 3c f6 02 9b bc 88 0c 2e bd
       -0.06640209 0.02062796 -0.01892231 -0.04249242
0001a0 0f 6e 0c 3c 6b c4 f8 bb 1d e0 30 bd 67 c7 08 bd
       0.008571162 -0.007591774 -0.04318248 -0.03339329
0001b0 21 52 0f 3c 56 dd 0c bd 57 b2 84 bc 33 2e 64 bd
       0.008747608 -0.03439077 -0.01619832 -0.05570812
0001c0 56 ea 9f bc fa e1 6a 3b dd e8 94 bd 7f 5a f8 bc
       -0.01952092 0.003584026 -0.07270978 -0.03031659
0001d0 35 15 9a 3d 15 bb 66 3d 6c 73 00 3e b9 c9 c6 bd
       0.07523576 0.05633076 0.1254403 -0.09706444
0001e0 2e e2 be bc 41 e4 71 3d 75 6e 85 bd 55 1f 90 3d
       -0.02330121 0.05905557 -0.06515209 0.07037226
0001f0 52 32 34 bd 98 95 39 3c 6a 28 1f 3d 73 ad 0a bd
       -0.0439933 0.01132717 0.0388569 -0.03385682
000200 00 7f 9b 3d fe f1 4e bd 73 cc 13 3d 53 70 0a bb
       0.07592583 -0.05052375 0.03608365 -0.002112408
000210 6c 74 50 3d 22 3b a1 39 61 0c b5 3c fa d5 e7 3d
       0.05089228 0.0003075237 0.02210063 0.1132011
000220 45 a5 b5 3d 71 3b d4 3d 3f c3 ff 3c 8c 05 ff bd
       0.08869413 0.103629 0.03122103 -0.1245223
000230 13 64 00 bd 4a ac a7 bb 10 27 ae bc 89 ca cb 3c
       -0.03134544 -0.005116974 -0.02125886 0.02487685
000240 77 be fb bc 8e 50 90 bb 4b 56 56 ba 4e 24 bd bc
       -0.03073047 -0.004404134 -0.0008176311 -0.0230886
000250 46 fe 1b bc d4 d4 91 3c b5 6d 0a bd 84 05 fe 3c
       -0.009521073 0.01780168 -0.03379603 0.03100849
000260 19 fd 6a bc 17 52 23 3d 3b 1d 25 3d 50 b1 d5 3d
       -0.01434257 0.03987321 0.04031108 0.1043421
000270 57 09 45 bd df 0b 24 3b 51 87 53 bc 9f df 04 be
       -0.04810461 0.002503149 -0.01291068 -0.1297593
000280 15 d2 50 be e4 10 c2 bd fa 23 93 bc d8 97 93 bc
       -0.2039264 -0.09475878 -0.01796149 -0.01801674
000290 80 1f 30 bd fc f3 a8 bd df 9e 4e bc 4d 7b cf bd
       -0.04299879 -0.08249661 -0.01261112 -0.1013094
0002a0 b4 07 88 bd b0 41 77 bd a8 60 90 bd ef 10 8c bd
       -0.06642094 -0.06036538 -0.07049686 -0.06839167
0002b0 f8 36 fd bd fe d1 6b bd 52 15 e9 bc 0f 4d 41 3d
       -0.12364 -0.05757331 -0.02845255 0.04719263
0002c0 73 7c 07 3d 56 18 f5 3c 31 8a 12 3d 53 63 1e bd
       0.03307767 0.02991883 0.03577632 -0.03866894
0002d0 7a 82 8b 3c 6f 00 8d 3d b0 6f d1 3b 3e 04 b5 3c
       0.01702999 0.06884848 0.006391488 0.02209675
0002e0 db d9 29 bd 77 cf 4b 3d a6 5b bb 3c 9e 86 9f 3c
       -0.04146753 0.0497584 0.02287085 0.01947337
0002f0 66 e2 10 3d 63 66 38 bd cf 6e e2 3b 61 b1 a9 3b
       0.03537216 -0.04501952 0.006910182 0.005178616
000300 72 ba 34 bc c8 4e de bd ab f6 fe bc 48 18 e6 bd
       -0.01103078 -0.1085487 -0.03112348 -0.112351
000310 87 9c a4 bd 0a 93 d2 bc 6d 26 b1 bd 7f 4a 76 3d
       -0.08037668 -0.02570488 -0.08649907 0.06012964
000320 2e 27 6a 3d 2f 02 5d 3c a2 22 ae 3b d4 b2 17 3d
       0.05716627 0.01348929 0.005314187 0.03703578
000330 07 b6 2b bc b6 4d 34 3a ad 01 81 3d ce f6 af bc
       -0.01048041 0.0006878035 0.06299148 -0.02147999
000340 13 d1 51 3d da 93 1a bd 71 58 47 3d ae a8 06 3d
       0.05122478 -0.03773866 0.04866833 0.03287571
000350 9d 62 5b 3c b8 41 37 3d 88 8b a3 3d 72 db 83 3d
       0.01339021 0.04474041 0.07985598 0.0643834
000360 d6 98 b0 3d 5f f7 2d bd 0b 52 fa bd 65 2c d4 bd
       0.08622901 -0.04247224 -0.1222268 -0.1036003
000370 13 2d f4 3d 2b c0 39 3d 58 c9 d3 bb 00 a2 16 3d
       0.1192266 0.04534928 -0.006463211 0.03677559
000380 eb 2c e5 3c a3 fb 63 3d b3 30 d8 3c 16 af 07 3d
       0.02797552 0.0556599 0.02639041 0.03312596
000390 5f 28 be 3c e8 02 93 3d bf af 0a 3d 0e b3 c6 39
       0.02321261 0.07178289 0.03385901 0.0003789891
0003a0 1e ad 95 3d 52 ae d8 3c e8 0a e0 3c 88 e6 ae 3d
       0.0730841 0.02645031 0.02734895 0.08540064
0003b0 52 64 a1 bd 66 3d 0a bd bc 3f 86 be c1 62 6b be
       -0.07880463 -0.03374996 -0.262205 -0.2298689
0003c0 27 5b ce 3d 06 d7 7d bc 4a 4c 47 3d a1 3c a2 bc
       0.1007598 -0.01549316 0.04865674 -0.0198043
0003d0 42 0f f0 3c 39 68 68 3d 9e 1a f8 bc 0a 27 95 3d
       0.02930415 0.05674002 -0.03028613 0.07282837
0003e0 80 ab 45 3a bf 7d 7c 3c e6 01 d1 3b f6 3c 67 3d
       0.0007540509 0.01541084 0.0063784 0.05645462
0003f0 71 b2 9b bd 5b 4f 63 3d d4 c5 d9 3c bb 8f 8f 3c
       -0.07602394 0.0554956 0.02658359 0.01752459

encoder.fsmn.0.affine.linear.bias f4 [250]
000000 9e 17 89 be 50 72 12 be d6 a8 97 be 35 e6 16 bf
       -0.2677583 -0.1430142 -0.29621 -0.5894502
000010 7b ae a5 be 7e 33 d6 bd 47 b0 d8 be 24 b5 48 3e
       -0.3235968 -0.1045904 -0.4232199 0.1960035
000020 ea e6 1f be e3 66 92 be ae f7 36 be bb 28 e2 be
       -0.1561543 -0.2859412 -0.1786792 -0.441717
000030 32 13 8a 3e 1a 41 c0 be 6e 12 80 be 2a 51 73 be
       0.2696777 -0.3754967 -0.2501406 -0.2376143
000040 75 b0 5e 3e 57 52 58 be 91 90 f2 bd 2c 33 83 be
       0.21747 -0.2112516 -0.1184398 -0.2562498
000050 d2 b5 3d be 87 a8 32 3d 8b 9f 7e bd c0 07 f3 be
       -0.1852639 0.04361775 -0.06216387 -0.4746685
000060 72 d3 80 be 1a 14 03 bf 25 9d 97 be 5b 32 0b bd
       -0.2516132 -0.5120255 -0.2961208 -0.03398357
000070 44 1c 10 bf 6e e6 0e be 46 df 76 be 4d 7c 7c 3d
       -0.5629313 -0.1395509 -0.2410861 0.06164198
000080 0b 1d 71 3d 38 f4 06 be da 7d fd bd 68 5b dd bd
       0.05886559 -0.131791 -0.1237752 -0.1080845
000090 5e 91 8c 3d 82 af 34 bd 29 7e 1d bf 42 7e b4 3b
       0.06863664 -0.04411269 -0.6152063 0.005508215
0000a0 98 69 bf 3e f7 bf 1e bd 6f 5b 0f bf 78 97 fb bd
       0.3738525 -0.03875729 -0.5599889 -0.1228475
0000b0 94 8b 95 bd 98 9d 4a be b1 a8 ae bf dd f9 8d bd
       -0.07302013 -0.1978668 -1.364523 -0.06932423
0000c0 72 55 e4 3d ee c7 d2 bd 1d c6 71 be d9 e3 b6 be
       0.1114911 -0.1029204 -0.2361073 -0.3572071
0000d0 54 68 a6 be ed 50 8b be 81 cc 0f bd 30 26 f2 bd
       -0.3250147 -0.2721018 -0.03510714 -0.1182369
0000e0 04 87 8c be 02 15 01 be cb a7 a6 be e5 d6 93 be
       -0.2744676 -0.1260567 -0.3254989 -0.2887489
0000f0 b4 9e 1a bf 5b 0f a2 be e8 7b ab be 44 4e f7 be
       -0.6039841 -0.3165234 -0.3349297 -0.483019
000100 ad 8b 96 be 7b 9a 48 be fe d6 aa be f0 cd e4 bc
       -0.2940344 -0.1959018 -0.3336715 -0.02793023
000110 ec 2f 8b be c4 b5 45 be 05 d4 4d be 0b ed d0 be
       -0.27185 -0.1930762 -0.2010041 -0.4080585
000120 bf 94 3e be 91 09 bd be b4 7f 02 bf 0e 2c 14 be
       -0.1861143 -0.3692136 -0.5097611 -0.1446993
000130 ce 72 80 be 91 8c 4b be ed 59 09 bf bc da 8b 3e
       -0.2508759 -0.1987784 -0.5365284 0.2731532
000140 21 2f 27 bd bf 50 b2 be fc ba ad be 9e 12 68 bd
       -0.04081643 -0.3482723 -0.3393172 -0.05665838
000150 0c 84 1f bf 61 c1 52 be 85 c4 1f 3e 96 5b ea be
       -0.6231086 -0.2058158 0.1560231 -0.45773
000160 8f a6 8a be 47 df a1 be 3a 9c 8c be 6f a6 1d bd
       -0.270802 -0.3161566 -0.2746294 -0.0384888
000170 9d f5 f9 bd 9f 41 c1 bd b0 a8 85 be a0 5f 65 be
       -0.1220505 -0.09436344 -0.2610526 -0.2239976
000180 42 49 67 be 48 60 c1 bd 81 26 b5 3d 8c 0c 0f be
       -0.2258654 -0.09442192 0.08845235 -0.1396963
000190 8b db 07 bf 56 22 52 be 83 16 aa be cb 83 b3 bc
       -0.5306937 -0.2052091 -0.332203 -0.02191343
0001a0 64 64 9f be 0f ac f4 be bd 1a c9 bd 91 28 a8 be
       -0.3113128 -0.4778752 -0.09819553 -0.3284345
0001b0 9d f3 4b be 07 63 00 3d ab 3a b8 be 9a 44 7c bd
       -0.1991715 0.03134444 -0.3598226 -0.06158886
0001c0 45 a0 2e bf f9 b9 5e be 8a 2f f8 be bc cd 6d bd
       -0.682133 -0.2175063 -0.4847377 -0.05805753
0001d0 cc bd ba be 24 4e 0d be c4 28 cf be 5b ee 7b bd
       -0.3647293 -0.1379934 -0.4046079 -0.06150661
0001e0 23 bc 65 be eb ba 29 be 1e c6 96 bf bf 0e a8 bf
       -0.2243505 -0.1657521 -1.177921 -1.31295
0001f0 8e 57 e0 3d 2e bc a0 be cd e7 44 be 18 b7 ac 3c
       0.109542 -0.3139357 -0.1922905 0.0210834
000200 46 a6 cd bd 6a 09 94 ba 00 23 cb be 6e e2 4f be
       -0.1004148 -0.001129431 -0.3967514 -0.2030122
000210 1e 20 33 be f2 c7 91 be 0a 74 80 3e 1e 9e 4a 3e
       -0.1749272 -0.2847286 0.2508853 0.1978688
000220 95 70 37 3e 48 1a 94 be 53 2f ba be 29 2b 81 be
       0.1791404 -0.289263 -0.3636423 -0.2522824
000230 be f0 ae bd 1c ab 89 be 6d 82 01 be 62 c3 e2 be
       -0.08542012 -0.2688836 -0.1264741 -0.4428969
000240 32 71 ab be 8c 55 09 be 95 62 77 be 62 cd 80 3d
       -0.334848 -0.1341154 -0.241587 0.06289174
000250 fd 14 a4 bd b4 66 8a 3e 26 2e 79 be bf 47 e1 be
       -0.08011816 0.2703148 -0.2433401 -0.4400005
000260 8d f6 4b be 40 34 e3 bd 0d ad 67 3c 9b 45 e5 bb
       -0.1991827 -0.1109395 0.01414038 -0.006996823
000270 b4 b6 0f be b6 ca 1d be 52 fa 80 3d 75 32 2a be
       -0.1403454 -0.1540936 0.06297745 -0.1662081
000280 22 b4 5c be 8f 8a 2f be dc 30 03 bf c4 75 39 be
       -0.2155309 -0.171427 -0.5124643 -0.1811133
000290 9d 39 9c 3c 50 3c 42 be fd bc 95 be aa 8d f0 3e
       0.01907044 -0.1896832 -0.2924575 0.4698308
0002a0 36 05 a0 bd 2c 3a 63 3e 45 91 1f be b3 39 c7 be
       -0.07813494 0.2219016 -0.1558276 -0.3891121
0002b0 ac e5 da be 4a 6d 24 bd 27 a5 eb bd ff 6c d5 3c
       -0.4275335 -0.04014329 -0.1150611 0.02605295
0002c0 df cb 60 be 37 95 3b be c0 bc 15 3d 59 1a 25 3f
       -0.2195277 -0.1831864 0.03655696 0.6449333
0002d0 e7 47 7d be 46 d1 b3 bf 44 f7 cc bd fb 38 77 be
       -0.2473446 -1.404824 -0.100081 -0.2414283
0002e0 10 92 cd be a4 9e 47 be 3e a8 dc be d2 c8 e3 be
       -0.401505 -0.1949411 -0.4309711 -0.4448915
0002f0 62 c8 10 be 60 90 bc 3e 9f 55 a6 be c7 ec 91 be
       -0.1413894 0.368289 -0.324872 -0.2850096
000300 a1 13 aa be 83 17 dc bc e4 ff e4 bd 11 29 fb 3e
       -0.332181 -0.02686668 -0.1118162 0.4905477
000310 84 8e 8c be f8 eb 4c be 30 2b 0c be ba d9 ff bd
       -0.2745248 -0.2001189 -0.1368835 -0.124927
000320 00 b7 cd bd 26 a4 4a be 29 9c b7 bd 97 15 c1 bd
       -0.1004467 -0.1978918 -0.08965332 -0.09427946
000330 53 23 d4 3d f2 74 5b be 22 e1 db be c2 6a 98 be
       0.103583 -0.2143133 -0.429452 -0.2976895
000340 d0 6f 12 bf 14 62 f9 bd 33 60 ae 3e c2 bb 39 be
       -0.5720186 -0.1217691 0.3405777 -0.1813803
000350 4d bf 88 bf 2f ad 31 be 1a 62 1e bc 25 24 ed bd
       -1.068338 -0.1735122 -0.009666944 -0.1157916
000360 db 03 97 3e 29 54 64 be 39 e1 97 be fb 3b 98 be
       0.2949513 -0.2229773 -0.2966402 -0.2973326
000370 dc 60 81 be 69 96 ff 3c 44 0b ea bd ab bc 9f be
       -0.2526921 0.03119965 -0.1142793 -0.3119863
000380 d6 16 6b be 4f 3f 38 be c1 cb e6 3c 1b 38 d6 bd
       -0.2295793 -0.179929 0.02817333 -0.1045992
000390 f4 31 bf be 17 25 03 bf 6f 50 46 be 1d 05 cc be
       -0.373428 -0.5122847 -0.1936662 -0.3984765
0003a0 55 45 a6 be d2 e5 05 be 88 69 6b 3d 7d e1 cf be
       -0.3247477 -0.1307595 0.05747369 -0.4060172
0003b0 ae ab 83 be 65 2a b5 bd e1 a7 5b be 8b b1 01 3d
       -0.2571692 -0.08845977 -0.2145076 0.03166346
0003c0 16 2f aa be ff c9 a0 bd 8f bb 8a be 13 82 ac be
       -0.3323905 -0.07851028 -0.2709622 -0.3369299
0003d0 3f 23 a5 bd 12 41 45 bd 5f 62 2f be 43 d1 94 bc
       -0.08063363 -0.04815776 -0.1712737 -0.01816619
0003e0 c1 99 b6 3e f2 9e 9f bd
       0.3566418 -0.07793988

encoder.fsmn.1.fsmn_block.conv_left.weight f4 [128, 1, 20, 1]
000000 6f e9 c7 bd 4b 2f 9d bc 65 67 59 bd af f7 b3 bc
       -0.09761321 -0.01918759 -0.05307712 -0.02196869
000010 c4 dd 5d bd e1 f2 16 bd 28 a9 e2 bc fb 71 e0 bd
       -0.05416657 -0.03685272 -0.02766855 -0.1095924
000020 bd 03 9f bd f9 bd 8a bd a2 52 9e bd 09 1f 57 bd
       -0.07764385 -0.06774516 -0.07730605 -0.05251983
000030 ad 9a f1 bd 08 c3 a8 3c e0 bc 17 bd 34 07 31 bb
       -0.1179708 0.02060081 -0.03704536 -0.002701235
000040 e1 5f cb 3d 15 82 98 3d 27 34 47 bd 54 fc 40 3d
       0.09930397 0.07446686 -0.04863372 0.04711564
000050 9e e0 97 bd 8f 09 85 3c c8 8c 8e bd 29 0a 70 3c
       -0.07415889 0.01623991 -0.06960446 0.01465086
000060 7e dd ae bc ac b7 09 bd b6 1b 75 bc c9 62 34 bc
       -0.02134585 -0.03362243 -0.01496022 -0.01100988
000070 ea 1d 70 3c d1 8d 05 bd 9b 63 0f bd 0f 45 c3 3c
       0.01465557 -0.03260595 -0.0350071 0.02383664
000080 0e 6c 03 3d 8e 9e 03 3c 35 a2 da 3d 5b 05 b5 3c
       0.03208547 0.008033408 0.1067547 0.02209728
000090 63 a3 12 3e 39 3c 81 3e 05 74 32 3e e2 c0 9a bd
       0.1432014 0.2524126 0.1742707 -0.07556321
0000a0 13 35 bf 3e 35 ba ee 3d a7 2c 3a 3d 55 c0 0b 3d
       0.3734518 0.1165661 0.04545274 0.03411897
0000b0 a1 17 48 3d 4d 0e a1 3d e4 3f 73 bb fa 3b 8e 3d
       0.04885066 0.07864056 -0.003711694 0.06945033
0000c0 41 4d 49 3d cf d5 b2 bb 06 9e ae 3d b8 b4 93 bc
       0.04914594 -0.005457617 0.08526234 -0.01803051
0000d0 8c 3c 3d 3c 82 7c a1 3c 27 67 7b 3d 1c 14 a5 bc
       0.01155008 0.01971269 0.06137767 -0.02015119
0000e0 5c 98 5e 3d 48 5d ae bd 55 ed 24 be b1 09 ee be
       0.05434452 -0.08513886 -0.1610616 -0.4649177
0000f0 70 1d 10 3e e9 6f ea 3b c5 14 0b 3c b1 3e ba 3d
       0.1407373 0.007154454 0.008488839 0.09093989
000100 8d a7 d0 bc fa ab b7 3d e9 fc 88 bc c3 20 67 3d
       -0.02547052 0.08968349 -0.01672216 0.05642773
000110 2b d2 a3 3d 8f 4c ad 3c 43 4b 21 bb 6f 2b b0 3d
       0.07999071 0.02115467 -0.002461151 0.08602034
000120 09 d6 93 3d e1 38 37 3d 8e b5 a0 3d 26 30 8a 3d
       0.07218558 0.04473198 0.07847129 0.06747465
000130 64 64 a0 3d b0 61 9f 3d 8f 2b 3e 3d 77 b5 88 bb
       0.07831648 0.07782304 0.04642826 -0.004172023
000140 23 a0 b8 bd 76 62 88 b9 6d ac 44 3c e8 d8 81 bd
       -0.09014919 -0.000260133 0.012004 -0.063402
000150 5e d8 97 3c 6b d6 18 bd a2 f1 de 3b db e1 ac bc
       0.01853579 -0.03731386 0.006803707 -0.02110379
000160 1a 5f 78 bd 3f 18 c1 bb ad c6 c7 bd 52 06 63 bd
       -0.06063757 -0.005892783 -0.09754691 -0.05542595
000170 36 09 fb bc 87 52 13 be 09 96 31 be fb fc 34 be
       -0.03064404 -0.1438695 -0.1734239 -0.1767463
000180 8a fb 9b bd 1a d4 65 bc 92 b9 c9 3d 7f ec c8 3d
       -0.07616337 -0.01402762 0.09849848 0.09810733
000190 68 fa 47 3d db b9 05 bc f6 48 aa 3b 68 be 68 3d
       0.04882279 -0.008161987 0.005196686 0.05682221
0001a0 a3 a0 47 bd 73 6b 3f 3d eb e0 85 3d 71 7a 14 bd
       -0.04873718 0.04673333 0.0653704 -0.03624958
0001b0 06 cc 4c 3d 12 ea 58 bb 47 33 cb 3b 4d c8 50 3b
       0.04999926 -0.00330985 0.006201181 0.003185767
0001c0 60 b1 34 bd 1f 6d bc bd bf aa 19 be 6a 8c 59 be
       -0.04411447 -0.09200501 -0.1500654 -0.2124497
0001d0 3a dd 3b be 7e af 5d bd f5 66 02 bd 81 e4 cb 3a
       -0.1834611 -0.05412244 -0.03183647 0.001555577
0001e0 67 ff 2e bd 28 a5 d7 bc 6e 66 2b 3d c6 82 c5 bc
       -0.04272404 -0.02632387 0.04184573 -0.02411021
0001f0 56 2b 01 bd 53 5c 54 3d f1 98 84 3c fc cc 63 3d
       -0.03153547 0.05184586 0.01618621 0.05561541
000200 9e 63 4b 3d 47 d7 a6 3d 0e 5f cc 3d be 63 87 3d
       0.04965555 0.0814653 0.09979068 0.06610821
000210 c9 e0 a0 3d 08 b8 98 3c e8 e3 00 be a7 f4 62 be
       0.07855374 0.01864244 -0.1258694 -0.2216364
000220 4c 8a 8b be e9 ba 10 be 8b 07 32 be 0f c3 5c bc
       -0.2725395 -0.141338 -0.1738569 -0.01347424
000230 99 8a c7 bc a3 a4 4f bc ca f8 a9 3d 01 c9 eb bc
       -0.02435808 -0.01267353 0.08299406 -0.02878237
000240 aa 9f 46 3d 26 1d e3 3c 87 e0 5e 3a fe a8 0c 3d
       0.04849211 0.02772386 0.0008502085 0.03434085
000250 94 36 d1 3c eb c5 30 bd 1b 7e 9d 3c 0d ac 01 3c
       0.02553872 -0.0431575 0.01922517 0.007914555
000260 bb e0 42 3c 7a 41 3b bd 9b 40 ba 3d 24 97 64 bd
       0.0118944 -0.04571674 0.09094354 -0.0558082
000270 64 d6 50 3d 62 b8 0f 3e 46 64 b8 3d 07 a8 da 3d
       0.05098571 0.1403518 0.09003501 0.1067658
000280 82 01 95 bd 8f 6e 55 3d b8 71 a1 bd 86 41 45 3d
       -0.07275678 0.05210739 -0.07883018 0.04815819
000290 91 24 7d bd 54 ab 2e 3d 0c 06 b6 bc f5 19 ab bc
       -0.06180245 0.04264386 -0.02221968 -0.0208864
0002a0 e8 4e 27 bb 3f 8b 36 3d 14 fb 27 bd 0c d9 9c 3d
       -0.002552921 0.04456639 -0.04101093 0.07658586
0002b0 4d b8 b9 3c 7f 76 08 3c 00 d5 ee 3d a1 7f 87 3d
       0.02267089 0.008329033 0.1166172 0.0661614
0002c0 5a 93 f8 3d 33 b8 e7 3d 71 c9 1f bc 70 1d 5c bd
       0.1213748 0.1131443 -0.009752617 -0.05373901
0002d0 ab 5a ee 3e ad f8 1e 3e 32 06 81 3d bb 4a 40 3d
       0.4655355 0.1552455 0.0630001 0.04694627
0002e0 ed d3 10 3c a2 e5 69 3d 97 09 b5 3b 7b 46 2a 3d
       0.00883959 0.05710376 0.005524825 0.04157112
0002f0 33 da 4e 3d 87 8e 78 bc 3e 7e c5 3b 0c 0c 4c 3b
       0.05050106 -0.0151707 0.006027012 0.003113511
000300 7d 12 83 3d ec b0 15 bd 84 9f 19 bd 46 f6 b7 3c
       0.06400011 -0.03654568 -0.03750564 0.0224563
000310 06 61 12 3c e6 9e 45 bc 1c 0c 25 be 7f 15 08 bf
       0.008934265 -0.01206181 -0.161179 -0.531578
000320 72 1f 34 3e 76 f9 b6 3d a6 95 a5 3d e5 3b 63 3c
       0.1759012 0.089343 0.08085184 0.01386926
000330 28 6a 04 3d 1d 51 27 3d b0 e3 af 3d 47 f4 8c 3d
       0.0323278 0.04084884 0.0858835 0.0688253
000340 b8 2c f4 3c ff 7f 9c 3d e1 67 e7 bb d6 ba 5d 3d
       0.02980648 0.07641601 -0.007061944 0.05413326
000350 f0 86 b4 bc e3 cb 9c 3c 5a 7b 06 3d bc 45 a8 bd
       -0.022037 0.01914019 0.03283248 -0.08216426
000360 4e 9f 16 bd 68 f5 a5 3d 4f 80 7b 3d 5d 2d a0 bd
       -0.03677302 0.08103448 0.06140166 -0.07821152
000370 59 77 e4 bc bd 60 b2 3b d4 62 80 3a 31 47 1b bd
       -0.02788894 0.005443661 0.0009795078 -0.03790969
000380 96 75 41 bc 34 05 0b 3c b2 3a 66 bc f6 b2 f6 3b
       -0.01180782 0.008485127 -0.01405208 0.007528658
000390 5f d8 15 3c 04 90 bc 3c e0 83 27 3d 1d c3 57 3d
       0.009145825 0.02301789 0.04089725 0.05267631
0003a0 72 20 6d 3d 1b 73 c9 3d a5 0a 10 3e 02 d9 2e 3e
       0.05789227 0.09836408 0.1406656 0.1707497
0003b0 0e 9a 62 3e 6e 0d 82 3e 18 ee 24 3e 34 f2 99 be
       0.2212908 0.2540087 0.1610645 -0.300676
0003c0 a3 7a 36 3d 4c 5b 0f bc 2c 56 3f 3c 67 de a3 bc
       0.04455055 -0.008749794 0.01167826 -0.02000351
0003d0 ea 34 99 bc 9e f2 74 3d ac 2a 29 bd 91 e4 e2 3c
       -0.01870199 0.05980169 -0.04130046 0.02769688
0003e0 f8 0f 9b 3b 1c 6d e6 3c 37 e0 56 3d 4e 6f c8 bb
       0.004732128 0.0281282 0.05245992 -0.006116784
0003f0 f9 37 ba 3d 16 f0 cb 3d 2f 1d 6e 3d 96 43 43 3e
       0.09092707 0.09957902 0.0581333 0.1906875

encoder.fsmn.1.affine.linear.bias f4 [250]
000000 eb 1c 2b be fb f4 36 3e 3c 11 68 3d df a2 e4 3e
       -0.1671025 0.1786689 0.05665706 0.4465551
000010 e5 e0 05 3d 23 b1 1e 3e a7 24 03 3e 14 a9 fa 3d
       0.03268518 0.1549726 0.1280695 0.1223928
000020 74 12 10 3d 4b 66 1b bd 54 96 77 be 34 bd f4 bd
       0.03517385 -0.03793935 -0.2417844 -0.1195015
000030 94 bc aa be 91 45 1d 3d 49 25 ca 3e 28 78 af 3d
       -0.33347 0.03839642 0.3948157 0.0856784
000040 d3 a4 04 3e d4 87 d9 3d 54 f7 b0 3d ee 52 80 be
       0.129535 0.1062161 0.08640924 -0.2506327
000050 ad 48 f3 3c b7 57 f3 ba 86 65 9a be e4 c1 e9 3e
       0.02969774 -0.001856557 -0.3015558 0.4565574
000060 bb 6f b7 3e 1d 26 51 bd 31 b1 92 be f1 d3 c5 be
       0.3582743 -0.05106174 -0.2865081 -0.3863826
000070 ba d7 31 be 9b a6 54 be e7 f0 bc bc 05 ad 53 3e
       -0.1736745 -0.2076668 -0.02306409 0.2067147
000080 33 fc 17 3d ed e9 f4 bd 20 19 99 3e d6 a3 f8 3c
       0.03710575 -0.1195868 0.2990198 0.03035156
000090 3d 4b 93 be f6 ee 07 3e de 7b 05 bb 52 c6 1e 3e
       -0.2876834 0.1327475 -0.002036802 0.1550534
0000a0 b9 49 66 bd 02 15 19 3e 74 e3 49 3d d7 7a f3 bc
       -0.05622265 0.1494942 0.04928918 -0.02972166
0000b0 99 49 23 3d 6e 69 b1 3e b1 dc 62 be ed cc 00 3f
       0.03986511 0.3465075 -0.221545 0.5031269
0000c0 4b 93 72 3e 04 0c 19 3e d1 15 16 be 2d af c8 be
       0.23689 0.1494599 -0.1465676 -0.3919615
0000d0 02 ad 72 be fa 41 d2 3d 83 fd 02 bb ce b0 dc bd
       -0.2369881 0.1026649 -0.001998753 -0.1077591
0000e0 5f b8 76 be 3a db 6f bc 6a 5c 02 bf 1d 09 47 3e
       -0.2409377 -0.01463967 -0.5092226 0.1943707
0000f0 85 0c 27 be 49 79 77 be fe 98 0e 3e c7 45 de 3e
       -0.1631337 -0.2416736 0.1392555 0.4341261
000100 40 df 7c 38 1d 2e bb be 45 6e 91 3d 00 41 a8 3d
       6.02894e-05 -0.3655862 0.0710111 0.08215523
000110 20 60 ca 3c 54 a7 1b 3e 1d f6 14 3e 3f 8b 65 3e
       0.02470404 0.1520055 0.1454701 0.224164
000120 e9 69 a7 3e b1 f6 64 be 58 84 3c be 45 46 47 be
       0.3269799 -0.2235973 -0.1840986 -0.194604
000130 05 c7 23 3c b2 63 88 3e 32 d8 a7 be a8 cc fb 3b
       0.00999618 0.2663856 -0.3278213 0.007684309
000140 28 bb 79 be 39 9f d5 3d 68 97 00 3f aa 9b db 3d
       -0.243878 0.1043076 0.5023103 0.1072305
000150 4b c8 a2 bd 6e 3e 54 be 11 20 06 3e 87 e7 60 3e
       -0.07948359 -0.2072694 0.1309817 0.2196332
000160 d0 d5 f2 be bb 0c 83 be 0d a7 14 3e dc f8 a2 3e
       -0.4742875 -0.2559565 0.1451685 0.3183049
000170 8a 4b 8f 3d 36 ce 46 bd b4 92 54 bc 51 09 e5 be
       0.0699683 -0.0485365 -0.01297443 -0.4473367
000180 56 2f 1a 3e e2 26 fe bd c6 f9 a1 bf 47 5b 32 3c
       0.1505712 -0.1240976 -1.265435 0.01088602
000190 09 5c 8d 3c b6 39 f4 3d ba 98 c5 3d d7 9f a1 3d
       0.0172558 0.1192507 0.09648271 0.07891815
0001a0 b7 b4 da 3d a9 c9 ac bd 3a 38 a5 3e c0 fe a0 be
       0.10679 -0.08436901 0.3226946 -0.3144436
0001b0 1f 02 9a 3c 34 db 31 bf b0 ed 5b be d5 5e 04 be
       0.01879984 -0.694751 -0.2147739 -0.129268
0001c0 3a 8b 5b 3e 2c 60 a0 3d 7e 72 5c 3e 8f 7b 82 bd
       0.2143983 0.07830843 0.2152805 -0.06371223
0001d0 25 6e 3c bc 81 1a 8c be 45 37 51 be 0a ac 8a bd
       -0.01150087 -0.2736397 -0.2043124 -0.06771095
0001e0 21 b9 fb 3d 6f 60 c5 bd 43 82 95 bc a4 01 17 be
       0.1229117 -0.09637534 -0.01825059 -0.1474672
0001f0 96 0c 33 3e 70 12 b8 3d eb 76 91 bd 79 f4 3d 3e
       0.1748527 0.08987892 -0.0710276 0.1855029
000200 e3 76 4b be 8f 46 1f be a2 54 3c 3e 1b d3 50 be
       -0.1986957 -0.1555426 0.1839166 -0.2039303
000210 a8 10 29 3e e7 8b 25 3b ec d6 0d bf 48 a6 a3 3d
       0.1651026 0.002526039 -0.5540607 0.079907
000220 56 0f 70 be cb 32 17 3e 94 9c 1c bf 17 af 23 be
       -0.2344335 0.1476547 -0.6117642 -0.1598476
000230 46 bc bb 3e a0 a4 20 3e e5 5d 1a 3f 68 4f 81 bd
       0.3666708 0.156878 0.6029952 -0.06313974
000240 eb 0b d8 bc f8 e9 fe bd a1 ae 87 bd 1c f4 88 be
       -0.02637287 -0.1244697 -0.06625105 -0.2674874
000250 e4 8f d6 bc aa e0 8e be 8a 8a 99 be b9 b7 f8 3e
       -0.02619166 -0.2790578 -0.2998851 0.4857767
000260 9a 77 34 be 62 31 86 3e 60 e2 14 3e b6 53 31 3e
       -0.1762375 0.2620955 0.1453948 0.1731709
000270 bf 2c 90 3d 25 8f 64 be b8 f2 18 bd fd 4e 60 bd
       0.07039785 -0.2232023 -0.03734085 -0.05476283
000280 0a fb e1 be 72 f1 89 3d cd e0 dc be e3 2b 4c 3d
       -0.4413684 0.06735505 -0.4314026 0.04984654
000290 38 92 96 bd b1 36 44 bd bf 94 c8 bc 68 d3 69 3d
       -0.07352108 -0.04790372 -0.02448499 0.05708638
0002a0 ab f6 8f 3d bd 50 65 be 5c 47 5b be 61 90 df bd
       0.0702947 -0.2239408 -0.2141394 -0.1091621
0002b0 b4 c8 77 3d f3 49 00 3e e2 f5 37 3e 02 38 9c bb
       0.06049414 0.1252821 0.1796489 -0.004767419
0002c0 a3 ef cd 3e 63 b5 31 3e 6b 37 84 3e 0c c8 03 bd
       0.4022189 0.1735435 0.2582353 -0.0321732
0002d0 95 01 01 bd d8 d2 b3 3d 7f 15 20 3e 05 c7 70 bd
       -0.03149565 0.0878045 0.156332 -0.05878355
0002e0 c2 83 1b 3e e3 d1 ec bd b4 9e d4 be e3 6c aa be
       0.1518698 -0.1156347 -0.4152733 -0.332862
0002f0 32 66 6c be 31 cc 3c 3b 3c 06 c6 3d 3b 95 8e 3e
       -0.2308586 0.002880823 0.09669158 0.2784823
000300 3b 4c c2 bc ff 99 b2 3d 9e 56 ab 3e 7a e4 3d 3d
       -0.02371799 0.08720779 0.3346452 0.04636047
000310 69 75 99 3d c1 5f 15 bd 78 27 aa bd d8 23 48 bd
       0.07493097 -0.03646827 -0.08308309 -0.04886231
000320 26 47 bb 3d c6 3c 49 3e b1 25 22 be d6 a2 3d bd
       0.0914443 0.1965209 -0.1583469 -0.04629787
000330 44 ca 16 bd e3 40 b0 bd bd 6f fc bd 07 df ee be
       -0.03681399 -0.08606126 -0.12326 -0.4665453
000340 c7 5a 55 be 61 41 b0 be a1 73 ab 3d fd b5 24 bd
       -0.2083541 -0.3442488 0.08371664 -0.04021262
000350 6d fb 60 3d 82 56 aa bd 40 37 6f be 3e 26 12 3c
       0.05492728 -0.08317281 -0.2336092 0.00892025
000360 2b f7 b0 bf 24 b4 c6 bc 8a 39 31 3f d2 91 67 be
       -1.382543 -0.02425582 0.6922842 -0.2261422
000370 f5 bd 90 3b 16 65 1e bd 0c 40 21 bf 4f 49 8c be
       0.004417176 -0.03867062 -0.6298835 -0.2739968
000380 e4 ab 13 be 26 6d 93 bd eb ab 8c 3d 0c b2 a8 3d
       -0.1442104 -0.07198553 0.06868728 0.08237085
000390 2e 92 33 3d df 86 b9 3e 20 f9 c3 3d 67 0e 09 bd
       0.04384058 0.3623571 0.09569001 -0.033461
0003a0 7e ac 6c bd c4 d7 3d be da 93 3d bd b9 7a 24 3d
       -0.05778169 -0.1853934 -0.04628358 0.0401561
0003b0 38 7a be 3e 40 a4 0f 3e 34 7b 0d 3e 21 a3 b0 3c
       0.3720262 0.140275 0.1381653 0.02156216
0003c0 48 89 a8 bd f8 b7 c9 bb 6c 3e f2 bc 33 05 25 3d
       -0.08229309 -0.006155964 -0.02957078 0.04028816
0003d0 13 99 39 bb 18 ae f3 be 93 c9 e8 3c 01 35 a5 3e
       -0.002832 -0.4759376 0.02841643 0.32267
0003e0 5d fa 9d bd f2 88 c0 be
       -0.07713769 -0.3760448
